…
00, 5207.49 examples/s]Map:  72% 10715/14852 [00:02<00:00, 5696.76 examples/s]Map:  76% 11333/14852 [00:02<00:00, 5365.06 examples/s]Map:  81% 12000/14852 [00:02<00:00, 4155.01 examples/s]Map:  86% 12707/14852 [00:02<00:00, 4772.85 examples/s]Map:  90% 13364/14852 [00:02<00:00, 4835.44 examples/s]Map:  94% 14000/14852 [00:02<00:00, 4831.82 examples/s]Map:  99% 14732/14852 [00:02<00:00, 5425.53 examples/s]Map: 100% 14852/14852 [00:02<00:00, 5021.93 examples/s]
PeftModelForCausalLM(
  (base_model): LoraModel(
    (model): QWenLMHeadModel(
      (transformer): QWenModel(
        (wte): Embedding(152064, 5120)
        (drop): Dropout(p=0.0, inplace=False)
        (rotary_emb): RotaryEmbedding()
        (h): ModuleList(
          (0-29): 30 x QWenBlock(
            (ln_1): RMSNorm()
            (attn): QWenAttention(
              (c_attn): Linear(in_features=5120, out_features=15360, bias=True)
              (c_proj): Linear(in_features=5120, out_features=5120, bias=False)
              (attn_dropout): Dropout(p=0.0, inplace=False)
            )
            (ln_2): RMSNorm()
            (mlp): QWenMLP(
              (w1): Linear(in_features=5120, out_features=13696, bias=False)
              (w2): Linear(in_features=5120, out_features=13696, bias=False)
              (c_proj): Linear(in_features=13696, out_features=5120, bias=False)
            )
          )
          (30-39): 10 x QWenBlock(
            (ln_1): RMSNorm()
            (attn): QWenAttention(
              (c_attn): Linear(
                in_features=5120, out_features=15360, bias=True
                (lora_dropout): ModuleDict(
                  (default): Dropout(p=0.1, inplace=False)
                )
                (lora_A): ModuleDict(
                  (default): Linear(in_features=5120, out_features=16, bias=False)
                )
                (lora_B): ModuleDict(
                  (default): Linear(in_features=16, out_features=15360, bias=False)
                )
                (lora_embedding_A): ParameterDict()
                (lora_embedding_B): ParameterDict()
              )
              (c_proj): Linear(
                in_features=5120, out_features=5120, bias=False
                (lora_dropout): ModuleDict(
                  (default): Dropout(p=0.1, inplace=False)
                )
                (lora_A): ModuleDict(
                  (default): Linear(in_features=5120, out_features=16, bias=False)
                )
                (lora_B): ModuleDict(
                  (default): Linear(in_features=16, out_features=5120, bias=False)
                )
                (lora_embedding_A): ParameterDict()
                (lora_embedding_B): ParameterDict()
              )
              (attn_dropout): Dropout(p=0.0, inplace=False)
            )
            (ln_2): RMSNorm()
            (mlp): QWenMLP(
              (w1): Linear(in_features=5120, out_features=13696, bias=False)
              (w2): Linear(in_features=5120, out_features=13696, bias=False)
              (c_proj): Linear(
                in_features=13696, out_features=5120, bias=False
                (lora_dropout): ModuleDict(
                  (default): Dropout(p=0.1, inplace=False)
                )
                (lora_A): ModuleDict(
                  (default): Linear(in_features=13696, out_features=16, bias=False)
                )
                (lora_B): ModuleDict(
                  (default): Linear(in_features=16, out_features=5120, bias=False)
                )
                (lora_embedding_A): ParameterDict()
                (lora_embedding_B): ParameterDict()
              )
            )
          )
        )
        (ln_f): RMSNorm()
      )
      (lm_head): Linear(in_features=5120, out_features=152064, bias=False)
    )
  )
)
[34m[1mwandb[0m: Tracking run with wandb version 0.16.0
[34m[1mwandb[0m: Run data is saved locally in [35m[1m/workspace/wandb/run-20231116_025644-xnwo9atj[0m
[34m[1mwandb[0m: Run [1m`wandb offline`[0m to turn off syncing.
[34m[1mwandb[0m: Syncing run [33mcerulean-jazz-25[0m
[34m[1mwandb[0m: â­ï¸ View project at [34m[4mhttps://wandb.ai/imdatta0/neurips_submission[0m
…
:00, 3740.37 examples/s]Map:  77% 9980/12903 [00:02<00:00, 4034.04 examples/s]Map:  81% 10447/12903 [00:02<00:00, 3675.31 examples/s]Map:  85% 10940/12903 [00:02<00:00, 3978.39 examples/s]Map:  89% 11459/12903 [00:02<00:00, 3696.48 examples/s]Map:  93% 11940/12903 [00:03<00:00, 3960.92 examples/s]Map:  97% 12468/12903 [00:03<00:00, 3735.19 examples/s]Map: 100% 12903/12903 [00:03<00:00, 3205.80 examples/s]Map: 100% 12903/12903 [00:03<00:00, 3820.66 examples/s]
PeftModelForCausalLM(
  (base_model): LoraModel(
    (model): QWenLMHeadModel(
      (transformer): QWenModel(
        (wte): Embedding(152064, 5120)
        (drop): Dropout(p=0.0, inplace=False)
        (rotary_emb): RotaryEmbedding()
        (h): ModuleList(
          (0-29): 30 x QWenBlock(
            (ln_1): RMSNorm()
            (attn): QWenAttention(
              (c_attn): Linear(in_features=5120, out_features=15360, bias=True)
              (c_proj): Linear(in_features=5120, out_features=5120, bias=False)
              (attn_dropout): Dropout(p=0.0, inplace=False)
            )
            (ln_2): RMSNorm()
            (mlp): QWenMLP(
              (w1): Linear(in_features=5120, out_features=13696, bias=False)
              (w2): Linear(in_features=5120, out_features=13696, bias=False)
              (c_proj): Linear(in_features=13696, out_features=5120, bias=False)
            )
          )
          (30-39): 10 x QWenBlock(
            (ln_1): RMSNorm()
            (attn): QWenAttention(
              (c_attn): Linear(in_features=5120, out_features=15360, bias=True)
              (c_proj): Linear(
                in_features=5120, out_features=5120, bias=False
                (lora_dropout): ModuleDict(
                  (default): Dropout(p=0.1, inplace=False)
                )
                (lora_A): ModuleDict(
                  (default): Linear(in_features=5120, out_features=8, bias=False)
                )
                (lora_B): ModuleDict(
                  (default): Linear(in_features=8, out_features=5120, bias=False)
                )
                (lora_embedding_A): ParameterDict()
                (lora_embedding_B): ParameterDict()
              )
              (attn_dropout): Dropout(p=0.0, inplace=False)
            )
            (ln_2): RMSNorm()
            (mlp): QWenMLP(
              (w1): Linear(in_features=5120, out_features=13696, bias=False)
              (w2): Linear(in_features=5120, out_features=13696, bias=False)
              (c_proj): Linear(
                in_features=13696, out_features=5120, bias=False
                (lora_dropout): ModuleDict(
                  (default): Dropout(p=0.1, inplace=False)
                )
                (lora_A): ModuleDict(
                  (default): Linear(in_features=13696, out_features=8, bias=False)
                )
                (lora_B): ModuleDict(
                  (default): Linear(in_features=8, out_features=5120, bias=False)
                )
                (lora_embedding_A): ParameterDict()
                (lora_embedding_B): ParameterDict()
              )
            )
          )
        )
        (ln_f): RMSNorm()
      )
      (lm_head): Linear(in_features=5120, out_features=152064, bias=False)
    )
  )
)
  0% 0/775 [00:00<?, ?it/s]/opt/conda/lib/python3.10/site-packages/torch/utils/checkpoint.py:429: UserWarning: torch.utils.checkpoint: please pass in use_reentrant=True or use_reentrant=False explicitly. The default value of use_reentrant will be updated to be False in the future. To maintain current behavior, pass use_reentrant=True. It is recommended that you use use_reentrant=False. Refer to docs for more details on the differences between the two variants.
…
